training/models/tiny_model.tflite (tflite, 3876 bytes, 5 tensors)

arith.constant f4 [12]
00000000: fea6 243e 89ed 1f3e 91ef 6a3e 07ba 7c3e
00000010: 5722 7e3e 844e 8c3d 5d80 8c3d b5af 4a3e
00000020: f1f4 483e 6b37 d9bd 751e 76bd fe72 4e3e
0.16079327 0.15617956 0.2294295 0.24680339 0.24817787 0.06850913 0.06860421 0.1979359
0.19624688 -0.10606273 -0.06008764 0.20161054

arith.constant2 f4 [1, 12]
00000000: 790c 11bf ad30 45bf 6415 e3be 8930 0ebe
00000010: 99dc 47be 1a40 ae3e 2055 143f 0cbe 18bf
00000020: a210 f0be 62ed 053f 51e8 0e3f 0e4a 543f
-0.56659657 -0.770274 -0.44352257 -0.13885702 -0.19517745 0.3403328 0.5794239 -0.5966499
-0.4688769 0.5231534 0.55823237 0.829255

arith.constant3 f4 [12, 24]
00000000: b595 f43d 7622 77bd 7814 31bd 5811 323c
00000010: 9edf 723e 3a01 9fbe 9c89 193e 0b21 91be
00000020: ec43 bfbc 03b3 debd fca1 fc3b 49cb b43d
00000030: e8cb 983d f2cf 8c3e 0119 7d3e 75d1 afbd
00000040: 4f06 e33e 78b7 7e3e d7e0 c63e d8de 8ebe
00000050: e73a 103e d955 cdbe 6133 f33e 27c4 153d
00000060: eb00 e4be 1711 323e a07d 85be a393 593e
00000070: 8aee 023f dcc9 493e f841 92bd e8c9 da3e
00000080: 2532 cc3e 23df a63e 7742 f63e 8883 91be
00000090: 641f 90be 15cd 8e3e 3899 eb3e 78c4 b93e
000000a0: cedd f53d 3e8b a33d 5a71 3e3e 7145 b93e
000000b0: eff2 b5be b08f 99be ae32 bd3e 31e2 a63d
000000c0: eeb4 0ebf 9c3f cc3e c641 583d 6bc3 f53e
000000d0: b7f5 c5bd af5d ce3d 1fa5 ba3e fa4a bbbd
000000e0: 38f3 97bd 8319 c83e df7e 8d3d 3e29 80bd
000000f0: 80e7 93be 379d 46bd 4343 89be cd75 b13d
00000100: 78dd 32bd f83d b03e 5859 2b3e 020b 4fbe
00000110: e514 b7bd fd5d 313e 47cf c53e f1f9 adbd
00000120: b02d 2d3e 69d8 083f 59e4 0f3e a6ab 4e3d
00000130: d005 053f 7253 7f3e a9b3 fb3d a246 003e
00000140: c8e9 5b3e 31ae f83e 0fdb 9d3e d183 dc3e
00000150: 322e 93be dfc0 523e 2432 4cbd 0bb5 0b3e
00000160: 7778 47bd a3e9 2b3e c579 4ebe b22e 723e
00000170: 3e20 12be e3ac 1fbe f898 173e 01b4 8b3d
00000180: 4bad b9be f9b7 cabd 9b0d 223e 9abb 873e
00000190: 3e0d d43e acfa ae3e ce55 c6bd aa2b ebbc
000001a0: 30e8 9c3d 8ac5 fb3e c17e 0d3f a37a a93e
000001b0: 1481 12be af7d 41bd 649a 4bbd 1f64 dc3e
000001c0: d1a8 b33e 9cf5 76bd ef84 f93e 0909 51be
000001d0: 5e06 82be 2e51 9dbd 3636 c23e c357 3b3e
000001e0: 6796 d03e 9157 1dbf cf36 e6be d930 4b3d
000001f0: 85ae bbbe b12f 383e 3047 0cbf 738b fb3e
00000200: d9b2 97be 22e7 e53c 6cc9 373d 2c2d 8a3d
00000210: 66be 98bc b655 8bbe 98c2 0d3e 90cf aebe
00000220: e40f af3e 223f 603e 4ce5 d73e 7060 47bd
00000230: 12ac 7e3e 1133 cf3e c73d 0abe de7d 1ebd
00000240: c0e2 8e3e fd78 54be 83ef 2a3e 793e b43d
00000250: 3f5d fcbd eb7d 9b3e 2756 0d3c c03f 1dbe
00000260: daaa e6be a1c9 a73c 7e48 abbd 3893 09be
00000270: 2c57 a93e 8680 7fbe 2af3 cc3e 65de 82bc
00000280: be6a 80be 0e56 ea3e 7528 52bd e6d3 e7bc
00000290: 96d1 5c3e 029b 173f 1335 e2bd e94e ab3e
000002a0: c1b4 393e f899 bd3d 289c 7bbe b7ad 293d
000002b0: 2f8b 803e f02c 49be 32e4 9f3e b8e3 673e
000002c0: ee84 09ba 1715 543e 189c ac3e d0aa 9f3c
000002d0: 9574 87be 97d5 343e 5415 893e fab2 4dbe
000002e0: ee07 3f3e 9902 b6bc cd2d 4e3e 60e5 ddbe
000002f0: c2f9 07bf 7d8b a13d ee48 7d3d d658 fe3e
00000300: ab1f bcbd 2c1d ecbd 3f6f c23e 0dcd e63e
00000310: 6614 e13d c795 ad3e 3b10 c33e 545a 2abd
00000320: 6330 c33e 0f0b 453e 11f2 b93c 0bc2 a9be
00000330: 2a39 793e 39ed 47bc 7216 6b3e c2b3 3dbe
00000340: f801 c73e 2a2a 713d c31f 553e 4b00 d0be
00000350: d3d1 843d 2733 d9be 4b1d 933d 6874 05bd
00000360: e8f1 89be 613f b0bd f4ba f9be 1427 bc3e
00000370: 0e29 cdbe d65e f03d d5b4 a03e 864d d9be
00000380: 1bea a6be b02e 00be d011 03be 260c 93be
00000390: 849c 423e 518d a83c 9360 ce3d 87d2 dcbe
000003a0: 2cfb 793e 78b3 063e cf7c 983e 6f39 b3be
000003b0: ebed 6d3e 8e75 87bd 743a 783e 8361 cebe
000003c0: ead0 993e 04e7 923c 1be9 f83d 8ddf 013e
000003d0: 2f9a 8cbe d3cf ddbe 69a5 f03d 813b 81be
000003e0: 6aa3 653e c9c8 003e 4b1f 89be 8d12 4b3e
000003f0: 7fe6 b63e 1f97 013e d6ce a1ba 1298 28bd
0.11942617 -0.0603356 -0.04323241 0.010868393 0.23718116 -0.31055623 0.149939 -0.28345522
-0.023347817 -0.108739875 0.0077097397 0.08827836 0.07460767 0.275024 0.2471657 -0.08584873
0.4434075 0.24874675 0.38843414 -0.2790439 0.1408497 -0.4010456 0.47500136 0.03656402
-0.4453195 0.17389332 -0.26072407 0.21247725 0.5114523 0.1970591 -0.07141489 0.42732167
0.39882007 0.32592115 0.48097584 -0.28420663 -0.2814895 0.2789084 0.46015334 0.36282706
0.120051965 0.07985543 0.18597928 0.36185792 -0.35536906 -0.29992437 0.36952728 0.08148611
-0.55744827 0.3989228 0.0527971 0.48000655 -0.09666007 0.100764625 0.36454102 -0.0914516
-0.07419437 0.39081964 0.06908964 -0.06257866 -0.28887558 -0.048489776 -0.2680913 0.08665047
-0.04366824 0.34422278 0.167333 -0.20219043 -0.08939532 0.1732101 0.38634703 -0.08494938
0.1691196 0.53455216 0.14051951 0.050456665 0.51961994 0.24934176 0.12290127 0.12526944
0.21475899 0.48570397 0.3083119 0.43069318 -0.28746182 0.20581387 -0.049852505 0.13643281
-0.04869887 0.16788344 -0.20163639 0.23650625 -0.14270112 -0.15593295 0.14804447 0.068214424
-0.36265025 -0.09898371 0.15825503 0.26510316 0.41416353 0.34175622 -0.09684335 -0.028707344
0.07661474 0.49174148 0.55271536 0.33101377 -0.14307052 -0.047239 -0.049707785 0.43045136
0.35089734 -0.060292825 0.48734233 -0.20413603 -0.25395483 -0.076814994 0.37931985 0.18295197
0.40739748 -0.6146174 -0.4496369 0.04960713 -0.36656585 0.17986943 -0.54796124 0.4912983
-0.29628637 0.028064314 0.044869825 0.06746897 -0.018645477 -0.2721383 0.13843763 -0.34142733
0.3419181 0.21899083 0.42167127 -0.048675954 0.24870327 0.40468648 -0.13500129 -0.038694255
0.27907372 -0.20749278 0.16692929 0.08800978 -0.12322473 0.30369505 0.008626497 -0.1535635
-0.45052224 0.020481886 -0.08363436 -0.13435066 0.3307432 -0.24951372 0.4002927 -0.015975187
-0.25081438 0.4576878 -0.051308114 -0.028299283 0.21564326 0.592209 -0.11045279 0.3345864
0.18135358 0.09257883 -0.24571288 0.041425433 0.2510619 -0.19646049 0.31228787 0.22645462
-0.00052459433 0.2071117 0.3371284 0.01949063 -0.26456133 0.17659603 0.26774085 -0.20087805
0.18655369 -0.022218036 0.20134659 -0.43339062 -0.53115475 0.078879334 0.06183713 0.4967715
-0.09185728 -0.115290016 0.379755 0.45078316 0.10990219 0.33903334 0.3809832 -0.04159005
0.38122854 0.192425 0.022698434 -0.33155856 0.24338213 -0.012202554 0.22957781 -0.18525603
0.3886869 0.0588781 0.20812897 -0.40625224 0.06485333 -0.4242184 0.071833216 -0.032581717
-0.26942372 -0.086058386 -0.48775446 0.36748564 -0.40070385 0.117368385 0.31387964 -0.42441958
-0.32600483 -0.1251781 -0.12799764 -0.28720206 0.19005018 0.020575197 0.10077014 -0.4312937
0.2441222 0.131544 0.2978272 -0.35004756 0.2323529 -0.06614219 0.24241048 -0.4030877
0.300422 0.017932422 0.12153836 0.12682934 -0.27461383 -0.4332262 0.117502995 -0.2524071
0.22425619 0.12576593 -0.26781687 0.19831295 0.3572273 0.12655304 -0.0012344967 -0.04116065

sequential_1/dense_1/MatMul f4 [24, 5]
00000000: 0d38 273e 6581 f13e a670 0e3e 0887 93bb
00000010: 9b8d 983e 1bdd 433e 7e1f 36bf a5ea 07be
00000020: aa52 b13e a275 7dbc 8579 f73c 1d72 d4bd
00000030: ff4b 873e b0d8 153e 4110 913e 1fe8 e0be
00000040: a583 b6be 94aa bc3e 44c9 34bd 2850 2bbd
00000050: 2579 bbbd 9bfd 49be 404c c33e e7a1 ffbd
00000060: 9e83 2e3d 4240 843e 7b73 213e 82f2 093f
00000070: d70a ae3e b6a0 22be 49f2 d63e ce18 40be
00000080: 9df3 f13d 412d 953c 0efb b23d ab67 f83c
00000090: ba3f 003e c6cc 843e d25c 96be aa2c a43e
000000a0: 887c dcbe 312c d6be 307a 19be b091 07be
000000b0: b91f bf3d 9cfd 0ebf d955 eebe 5f3f 84be
000000c0: 05ff f23e 87e9 d63e 0e90 b03e 4bcd 0bbf
000000d0: a013 46bd c02e b0bd c3e8 9cbd 9d4e 4d3e
000000e0: cc18 5dbe b7ca 52be 453f 92be 0278 ca3d
000000f0: 272c 833d d07e 8f3e b3a0 163e 6f8f bcbe
00000100: 7b68 87bd 46b7 d73e c24e 9cbe 89dd 023c
00000110: 892e 8c3e 1cef e43b 078d e83e 5b7a a7be
00000120: d3f8 e23d 11b1 993e af19 cdbd 3896 11bd
00000130: 1603 0dbf 119b a2be cf59 993e 18c8 2d3e
00000140: 6eca cbbe d5e1 57bf 1987 5c3e 971c c5be
00000150: a604 e63d 252d 6bbe 650a a93d f071 c9be
00000160: c663 bf3d 05ae f93e 558e 023e cf5f f2be
00000170: 39ed ffbe 1ffe 6abe 13c6 d0be 641b aebd
00000180: d241 923e 1589 2f3e e6a2 ba3e c297 55be
00000190: ea3b 8a3c 5a61 0a3f d52b 4c3e ff02 1ebe
000001a0: 9fc2 46bd 90a9 51be f8c3 1a3f 7f72 00be
000001b0: f555 0d3e b8ca 373e 161e ebbe 8494 c5be
000001c0: 1c55 e23d 1dbd 16be 91d0 5ebe 9a25 cebe
000001d0: 288d 02be 0ded 16bf 1523 693e dd54 96be
0.16329975 0.47169033 0.1391016 -0.004502181 0.29795536 0.19127314 -0.71141803 -0.13273104
0.3463338 -0.01546994 0.030209312 -0.10373328 0.26425168 0.14633441 0.28332713 -0.43927094
-0.35647312 0.3684889 -0.044137254 -0.04182449 -0.09153966 -0.19725649 0.38144112 -0.12482052
0.04260599 0.25830275 0.15766709 0.5388566 0.33992645 -0.15881619 0.41981724 -0.18759462
0.11814044 0.018210055 0.08739291 0.03032287 0.1252431 0.2593748 -0.2936769 0.32065326
-0.4306376 -0.4183059 -0.14988017 -0.13239169 0.093322225 -0.5585573 -0.46549872 -0.25829598
0.4746019 0.41975042 0.34484905 -0.5461013 -0.04835856 -0.08602667 -0.07661583 0.2004952
-0.2159149 -0.20585142 -0.28563896 0.09886171 0.06404906 0.28026438 0.1470974 -0.3682818
-0.06611725 0.42132014 -0.30528837 0.007987388 0.27379254 0.006986512 0.45420095 -0.32710537
0.11082616 0.30017903 -0.100146644 -0.03554365 -0.55082834 -0.3175893 0.2995133 0.16970861
-0.3980288 -0.8432897 0.2153591 -0.38498375 0.11231355 -0.2296644 0.08253936 -0.3934474
0.09345202 0.4876558 0.12749608 -0.4733872 -0.49985674 -0.22948502 -0.4077612 -0.08501318
0.28565842 0.17142136 0.36452407 -0.20858672 0.016874272 0.54054797 0.19938596 -0.1543083
-0.04852545 -0.20474839 0.60455275 -0.12543677 0.13802321 0.17948425 -0.4592139 -0.3858987
0.110513896 -0.14720578 -0.2175925 -0.40263063 -0.1274916 -0.5895546 0.22767289 -0.2936162

sequential_1/dense_1/Relu;sequential_1/dense_1/BiasAdd f4 [24]
00000000: f789 4cbb 178e 903e 966b bebd c639 bcbd
00000010: 3485 513e 7736 eb3d cc54 3b3e 72b9 f03d
00000020: 7bd0 793e fe7a 853e b2cc 343e 0384 70bd
00000030: 3411 aa3d f8f2 3f3e abe6 893e bfff 0f3e
00000040: 0678 c63e b98a b43d fc89 863e 974b 643d
00000050: 0bdd 153e e257 1c3e da80 853e b12e 873e
-0.0031210163 0.28233406 -0.09297864 -0.09190707 0.20460969 0.11484998 0.18294066 0.11754121
0.24395935 0.26070398 0.1765621 -0.058719646 0.083040625 0.18745029 0.26933798 0.14062403
0.38763446 0.08815522 0.2627715 0.05573615 0.14635102 0.152679 0.26074868 0.2640281
